models/model_83.50_2025-02-21_23-06.npz (npz, 815218 bytes, 4 tensors)

dense1_weights f8 [784, 128]
00000000: 5084 431a 497e d4bf 810e 8203 1dc3 d5bf
00000010: 1cdf 26f3 b464 a3bf c4c6 6470 b802 98bf
00000020: fc28 c938 ea87 f43f b163 38c4 27f0 e53f
00000030: 0352 f38c 718b e7bf 5165 37b6 8dbd db3f
00000040: cc56 bbf8 d2e4 b1bf ba9c 0af3 b9c2 bbbf
00000050: 4054 eb61 6384 f73f 2c52 76ec f8f9 e0bf
00000060: e8a6 a378 5ce2 f4bf ede8 c8d5 158d e53f
00000070: 35e1 5e26 afa1 e73f 9c24 b37e 7fff efbf
00000080: 7a48 8a59 3588 b93f adca 083a b5c4 d3bf
00000090: c23f 540e d045 e5bf 8289 e979 011b eabf
000000a0: 4383 a614 cfdc d63f 45b6 18d8 c9f7 debf
000000b0: e6f2 8064 e62e e13f 2d0f c4ff f82f d6bf
000000c0: be7b f548 d6a8 ed3f 41ba ac7f f04c cabf
000000d0: 7c73 a160 3663 e4bf f850 c576 df31 f1bf
000000e0: d3bf 8bfa 096b 983f 2849 8584 61e7 f7bf
000000f0: 2318 d199 2f7f d5bf 2d60 b628 fdfd f13f
00000100: 6612 af18 dde0 cc3f b22b 65f3 96f4 f83f
00000110: 85e8 4c34 d931 e23f dbae b670 3264 cdbf
00000120: 427b 8469 26de e63f 8676 30ba 0327 d5bf
00000130: ea46 30f3 b61c e43f aa70 9243 a155 fabf
00000140: 1c55 628e c963 f33f 57f3 3b83 89fc f2bf
00000150: 22e9 4755 6f37 cdbf 2bd1 d3f4 d3fc ddbf
00000160: f19d 96bd 4cb5 f13f 2b3a 179f 88d3 d53f
00000170: 7c96 6658 400e d43f e520 4114 0666 f0bf
00000180: 6e3e 1ba0 05e3 f93f 4f83 6522 0ba7 06c0
00000190: 82d0 9791 662f f53f 8c7d 9bc5 cc4e fb3f
000001a0: 847f 02c4 3ab1 dabf b784 cd83 40e0 d8bf
000001b0: 6162 4110 d436 d4bf f8e3 c90b 9e6e f9bf
000001c0: 7ee3 dd87 91f2 d93f 2390 a0b0 7914 d2bf
000001d0: e8ad 1766 c3c2 f13f 7fbb 96bd 61bd afbf
000001e0: 4a5d 7ad1 6f51 fabf 499c 7969 afad d4bf
000001f0: c7f2 3d11 7061 d03f 82aa a12b 4b36 f03f
00000200: 575d 47c6 8ede e8bf 0425 526b 02be 00c0
00000210: c43a 8b6d 44d9 f53f f0f4 7a5b ce8f f53f
00000220: 0341 26f4 6cb3 cc3f 6e80 e28f 4560 e0bf
00000230: 27f3 0261 557c fb3f 20f5 7df8 dd06 c43f
00000240: b2ad bb9f fb2b d83f 748b 49d0 06bb c53f
00000250: aef0 2dbd 4f1e e33f 97b1 25bd f7e2 d1bf
00000260: 4d67 1b85 803d c83f 2aaf e5ea 6e28 eb3f
00000270: 5683 6f2b edf9 c23f 11ba 1cb2 2d66 07c0
00000280: 1068 6bbf 2d22 ff3f ecf2 3ad3 b3cc dd3f
00000290: 909d 4868 6beb 95bf 07fd 207f c34f d8bf
000002a0: d422 295f d19f f23f eadd dd1c ac7a d0bf
000002b0: 57f3 2909 1dfa f3bf f70d 6eb4 5548 dfbf
000002c0: 0e1f 538a 2d01 fa3f 4184 de00 9954 d8bf
000002d0: 2f57 a81a b011 d63f 3788 6727 9ed6 9dbf
000002e0: be98 0c08 6bf5 02c0 3419 48eb 9c11 eb3f
000002f0: 8a13 6638 f2b9 e23f 08f0 3e6c 52a8 ecbf
00000300: 7a9c df3e 97a7 a93f 98f7 ae7c 6471 cabf
00000310: 42c1 2e36 2c48 d43f 9e43 91fa 15b9 afbf
00000320: f369 4fbc a362 cbbf cb46 8fa7 1178 e63f
00000330: 3416 d329 1c4e bfbf a0bf 2459 b296 c2bf
00000340: e571 00fa be80 dabf 5419 536a 233f c4bf
00000350: 6552 d013 fa7a d63f 7e3f 0c61 defd c6bf
00000360: cf9d 134a 6706 e4bf c51d 60a4 9b75 e33f
00000370: 05dc a727 9f69 acbf 9386 f821 057b d5bf
00000380: 4506 5a46 f920 e4bf bd3d e4c8 a2cb e5bf
00000390: 8499 07f8 4076 eb3f 4c5c 30c3 a81e cdbf
000003a0: 40f3 832e 3917 f13f 4d52 ea67 7349 e43f
000003b0: 419d 9df8 849c dbbf 5a2d fa49 a287 ec3f
000003c0: b7f1 0b3c 3065 fb3f 682c 6237 672f cebf
000003d0: ba0a 52a0 2884 893f f24b 413b 904e 02c0
000003e0: 3d70 3a8c 8671 f0bf 99b0 2fb0 8deb d4bf
000003f0: 523c d278 829e c63f 9743 359c 92be ec3f
00000400: 7d71 1efc bb27 c73f a0f3 5b13 4291 d83f
00000410: b7b6 6553 b0b5 f83f 05f2 f7b8 1d8f ccbf
00000420: d354 d628 0728 f0bf cdbd 4b87 07f0 efbf
00000430: 7805 bd2a 232d dc3f fe4b 9df8 69a9 f3bf
00000440: e616 51ae 04ea f2bf 3220 7b6b 41cc e7bf
00000450: 1f57 b592 4e22 d7bf 2e21 2700 5f2b f63f
00000460: 4367 4fdf 93e3 f0bf 05c9 59a3 b72f c7bf
00000470: 366c 8c15 c78e e83f 5025 0ad8 2193 e9bf
00000480: d580 4a66 43fd f23f 49e2 facb e425 a33f
00000490: 1321 b654 7d40 cd3f 977a 7afe 8cb8 c6bf
000004a0: c488 cc01 b680 a93f 4389 d753 eacf f6bf
000004b0: 53a0 e196 6436 babf 061c 8952 27a1 bc3f
000004c0: d952 b460 2d91 e33f 3625 dc97 2f9f eb3f
000004d0: 6a35 ce0c b314 ee3f 0f4b f464 6cc1 c6bf
000004e0: 40ce 8c31 acb3 d03f 3853 f578 f1ce d03f
000004f0: a68f 2aeb 18e3 e43f 90f4 162a bd6a cd3f
00000500: 33f8 26c6 59b2 f9bf a714 6043 1bd3 eabf
00000510: 9a12 fa3b 7d7f e1bf d8dd 8989 baf6 cfbf
00000520: ea51 71b7 9a10 ebbf e15c 6440 c70f e73f
00000530: 4844 2a2c bf8a f1bf d076 6096 a854 e23f
00000540: 9e7a 98a1 d07f f8bf 02fa 3d0a 8763 78bf
00000550: ccb9 8cf4 4a75 e93f 75bf 36a9 c87d f33f
00000560: 61e7 9feb 221e d1bf b164 ca46 3646 df3f
00000570: 5b13 b63c ece9 e33f aac4 d87e b0c7 f23f
00000580: edb7 41a4 b257 c4bf 0765 50df f29e d33f
00000590: 5e87 3f0e 876f 0640 e446 b9d9 dbf9 e13f
000005a0: 1b3a dfb2 eafc c13f f651 4e06 98ad e73f
000005b0: 3f77 8127 4b5f e2bf 1a99 bc63 bc7a dfbf
000005c0: b21f b4de 54d1 dc3f 6431 9745 740c e33f
000005d0: 63f0 c750 c583 c13f 7636 9b05 7173 e2bf
000005e0: 1ab7 b380 5273 00c0 030d 083e 51b2 fa3f
000005f0: a2ac facf 1492 c8bf 0dfa de47 e976 f43f
00000600: 96dc cf6e e5f1 703f 5e27 6193 db8b f73f
00000610: 511b 8dde 7208 ea3f 7e7b be2a 5c2e f93f
00000620: fa37 c8ee 9773 d93f e377 0670 a81e 0140
00000630: 2478 adc1 f5ea ddbf 1e77 aaf4 a263 cd3f
00000640: 7488 bef9 8d95 f33f 950d b0b7 878f d7bf
00000650: 6b94 c19b 8f86 f33f 8e04 7d38 c8a5 d63f
00000660: 53a8 fcf4 f4e6 e53f 12b9 8534 76e5 b43f
00000670: bb4f 9dad 3d30 ed3f 5e8c e145 48ee d3bf
00000680: 444c 205f 76b4 d03f 2c1f 8126 1ff7 f2bf
00000690: daa9 0354 3387 debf 3607 825f 6bcb e7bf
000006a0: aa68 5885 34b8 0240 f9fb 5c62 63f7 d6bf
000006b0: 8500 5d6b de8f c4bf 9211 9694 495c ef3f
000006c0: 34ee 27c0 89b3 fc3f 7ae0 6b90 a52e 00c0
000006d0: 0ed9 6ff5 0030 f03f 85b1 de65 b254 d8bf
000006e0: 504e 0bfe 5c4d ed3f 1eac 0b15 d8f5 cabf
000006f0: 8bee f137 9b6a eb3f 9ce5 94d7 f481 b9bf
00000700: df50 a1d9 856c f6bf 2328 cd3d 4ebb f9bf
00000710: fc8d ad4b 7e0d e23f fd9e 2c22 4d1c d0bf
00000720: 4b30 8aa6 17ce ed3f d17b 0af0 98f3 fabf
00000730: 610b 77e0 302f 98bf b4cb 63eb 2f0f ff3f
00000740: 9f94 a8b1 d201 dabf b8b6 271c 46e0 d33f
00000750: a398 aa8a d5aa ee3f 94bc 1713 2ed7 f5bf
00000760: 1658 d7d8 5195 e53f a534 b97a 7926 edbf
00000770: f998 1bef c088 d3bf f445 cac9 dd97 fcbf
00000780: ea89 fec3 3568 e3bf e923 9932 7385 c63f
00000790: 3ae0 e65c 5018 db3f 2032 c1fe c524 f8bf
000007a0: 5c62 77dd 847b e73f c95b f49c 87ba e93f
000007b0: 1b3f 4111 8cb8 e9bf dccd 8328 104b f73f
000007c0: 8d57 d342 b8e5 cbbf c651 2e6c c3e1 ed3f
000007d0: 25ca 2569 2495 e6bf cd1e 0f31 d213 e5bf
000007e0: 58c1 3d4b 4c1c e4bf d0a6 b968 51a1 f6bf
000007f0: 5e3b 3769 957c f7bf 3dda 7e94 b190 c43f
-0.3202078587037862 -0.340033772874655 -0.03787770717775471 -0.023447877750362847 1.2831823557085604 0.6855658371379062 -0.7357719185770865 0.4334444312531405
-0.06989782879403633 -0.1084400385249066 1.4698213410349723 -0.5305142038728881 -1.305263968703395 0.6734723258480507 0.738486838286042 -0.9999387240033175
0.09973462520636814 -0.30888109843651074 -0.6647720603814309 -0.8157966023539276 0.35722710625309534 -0.48387380698372723 0.5369750941241278 -0.3466780183518832
0.9268599915484328 -0.20547300562016527 -0.6371108901326887 -1.0746760024531437 0.023845821301563163 -1.493989484461574 -0.33588781377000226 1.1245090093925783
0.2256122942473155 1.5597142703652307 0.5685850163929592 -0.2296202707633402 0.714617925728682 -0.3305062597517935 0.6285052060868257 -1.6459057464153752
1.2118621408347456 -1.186654579766772 -0.2282542387400293 -0.4685563937084846 1.1067626386446785 0.3410359910602973 0.3133698333061614 -1.0249081412494487
1.6179252866894802 -2.831564205859116 1.3240724265315582 1.706738254455419 -0.4170672334821506 -0.3886872565399914 -0.3158464583152974 -1.589506193208079
0.4054302050422435 -0.28249971626996934 1.1100496280658891 -0.061991743462718844 -1.64488202884043 -0.3231009035138795 0.2559471290949599 1.013255281863764
-0.7771676895744503 -2.092778051800112 1.3655437735612148 1.3476089070748536 0.22422563477858412 -0.511751919770189 1.717854861212979 0.15645956643485537
0.37768450354516425 0.16977009935643717 0.5974501318846899 -0.2794780108586336 0.18937689303748542 0.84868570211754 0.1482521497810249 -2.9248918452278834
1.9458444096876555 0.4656190455241773 -0.0214058668517772 -0.37986838736465284 1.1640180318083155 -0.25748732394228446 -1.2485628469432493 -0.4887899648676632
1.6252875712688737 -0.3801634319771133 0.3448295841529782 -0.029139014391951625 -2.3698330525249665 0.845900020155375 0.5851985074556165 -0.8955471147705802
0.05010674135683586 -0.20658546531734312 0.3169050721289929 -0.061958968006940326 -0.21394774145922177 0.7021568558359034 -0.12228561421496736 -0.1452238974829898
-0.4141080323622915 -0.15817682925826182 0.3512559121602748 -0.17962245691932915 -0.6257816740807643 0.608106442495164 -0.055493329611572086 -0.33563354794942163
-0.6290251134925674 -0.6811078952468318 0.8581852764444169 -0.22749814539631286 1.068169767094517 0.6339661626430569 -0.4314281871688373 0.8915568776005032
1.7122042031834164 -0.23582163051864602 0.012459103958695084 -2.288361037187763 -1.0277162053744313 -0.32687704282467106 0.17671233081316245 0.8982632685602877
0.18090009508604146 0.3838658513121178 1.5443576104839118 -0.22311755687395887 -1.0097724528507583 -0.9980504648682939 0.4402549664847224 -1.228860827589187
-1.1821333703277843 -0.743683538364172 -0.36146892859447805 1.3855886465044693 -1.0555609438947193 -0.181143717537971 0.7674289151067402 -0.799210473968893
1.1868318553679746 0.037398481273559776 0.22853056560803306 -0.17750704217629185 0.049810111732101287 -1.425760581500598 -0.10239247020365498 0.11183400883702185
0.6114718331105805 0.8631818738951214 0.9400267839534255 -0.17777781419189195 0.26096634711140965 0.26263081371625985 0.6527218430605799 0.22981991343650465
-1.6060426464387205 -0.8382698360370754 -0.5468126460478573 -0.24971706119298065 -0.8457768996109369 0.7206760652215075 -1.0963737225722685 0.5728342949912193
-1.5312048256234116 -0.005954291820556625 0.7955679680215382 1.2182089433590282 -0.2674643803617212 0.48866040146965434 0.6223050294653193 1.1737523035956579
-0.15892632503840734 0.3065764599610507 2.804456816972489 0.5617503406922109 0.14053090795501152 0.7399406550562719 -0.5741325160595138 -0.4918662046424217
0.4502765822257927 0.5952702864829402 0.13683382458100643 -0.576591978978924 -2.056309705242609 1.6685345099547824 -0.19195804743990147 1.2790310676060728
0.004136940214258497 1.4716449505817404 0.8135313364699447 1.5738183660211855 0.39768026655735833 2.139969706723592 -0.4674658194907144 0.2296031660707109
1.224012351573518 -0.36813538492443715 1.2203517994141986 0.35386853710594657 0.6844429764653434 0.08162630827220976 0.9121387854488526 -0.31141859840699293
0.2610145501104777 -1.185332441718809 -0.4770019836857081 -0.7435814729107963 2.3399439256291616 -0.35884937864096816 -0.16064052812908272 0.9800155546259239
1.79383254109315 -2.02277672604765 1.0117196643237238 -0.3801694865058141 0.9156937562751839 -0.21062756564728685 0.8567634670902903 -0.09963922751639703
-1.4014948369195321 -1.608228913699812 0.5641471365055959 -0.2517273744328888 0.9314077618341882 -1.6844720245933227 -0.023617519092805298 1.94120780896331
-0.4063612685152495 0.31056359052204696 0.9583537777259789 -1.3650341745194838 0.6744775042705011 -0.9109465977613992 -0.30522178030368213 -1.787076748125739
-0.6064709499372019 0.17594757052054824 0.42335900375792657 -1.5089778853754368 0.7338280034555953 0.804019743491943 -0.8037777268418468 1.455825956593677
-0.21794799101797616 0.9338090050610439 -0.7057058385528917 -0.6586695631203497 -0.6284543485217382 -1.4143842783764065 -1.4679159269323558 0.16066570044286435

dense1_biases f8 [1, 128]
00000000: f7f3 aa5c 3e79 09bf 1594 0b25 094f 31bf
00000010: 680a 595e c7b0 1cbf 0eb1 f52c 3230 2abf
00000020: 926f d0a3 5d06 21bf 320e f073 2b70 0abf
00000030: 4437 d98f 3451 4cbf f0d4 d64e 2c4d 4bbf
00000040: 2247 16ed 8779 243f a797 d347 bb4b 32bf
00000050: b388 bd3a c256 47bf 674f 5812 d328 49bf
00000060: 3e01 1d3f 8c44 19bf f502 17a8 766d 243f
00000070: 3fac 25ee 7b6e 2ebf 5a08 dbcf 60b6 41bf
00000080: 3978 322c 14c3 32bf 8354 9a46 d26b 26bf
00000090: 2ef5 ded2 a21a 43bf a743 91e1 b14d 213f
000000a0: f4e8 6986 a73c 1fbf d458 21fd 20ca 46bf
000000b0: 7609 6947 cd08 3dbf 1e6c 21bd 5f7e 33bf
000000c0: 0d52 97e3 2da3 153f 8669 4155 be2a 36bf
000000d0: 44bc 99de 1914 1b3f 4e63 a688 7d9f 3cbf
000000e0: 34ab c6d1 2bb5 46bf db5f c479 4fa1 41bf
000000f0: d522 f679 b043 333f 439f 260b 4d8b 313f
00000100: 9778 b91d 9a8f 29bf fa49 8b45 1bdf ebbe
00000110: f03c 0cb6 8b94 d3be f58b 337f 1f3e 0b3f
00000120: 489b ed1d f945 4cbf 991a 4096 6ee5 30bf
00000130: ac31 f202 6a52 3abf 1d2b 7cac b5d8 38bf
00000140: 8073 3e1a e767 06bf 33f6 8ed6 45eb 2b3f
00000150: 0613 4ade 792f 2c3f 1554 5363 bf55 03bf
00000160: 7798 1ca8 04d3 3f3f fc16 451c aefa 353f
00000170: a309 d8ce a004 35bf 9e8b bcf2 43ef 37bf
00000180: fac5 8405 9e55 33bf d2f9 b64a 4f0d 51bf
00000190: 32d8 33d3 a7f8 0ebf 7ae0 3b62 e799 273f
000001a0: a383 51fd d690 48bf 8d58 68a0 c015 47bf
000001b0: 9473 2802 a3c3 35bf e3ca 2f59 970f 3cbf
000001c0: c6c4 2434 50ba 173f 0e38 2e10 69e0 fabe
000001d0: ccde 9c22 f345 4dbf 6951 3751 5608 2abf
000001e0: ad01 3aa3 b9c9 043f 1caf 5649 e80e 3b3f
000001f0: 0e14 368e 1c00 f83e eb58 19ab 6b1a 113f
00000200: f270 633b 30a4 153f c031 1062 a438 4fbf
00000210: 6b0b 1330 dfcf 403f 62f8 2739 3e76 2b3f
00000220: a502 7911 9fce 3abf 43fd 5437 6bda 50bf
00000230: 58f4 a08a e5db 44bf b435 6a10 fcdf 1e3f
00000240: db30 d1d1 ebe6 22bf 1a87 e141 bfbb 33bf
00000250: b0d8 ec3f d244 42bf b094 893d 222f 303f
00000260: aed3 910a acc2 243f ad05 355f 43a9 fb3e
00000270: 4bd5 60cc 3afc 43bf 7ce7 4400 f7e7 1ebf
00000280: aba4 0ba6 f1ef 51bf 1bac 3319 e162 33bf
00000290: 84a4 0dfe 95fa 083f 68ee c24f fcf4 42bf
000002a0: 41b2 748e cb05 02bf 48da c842 9483 31bf
000002b0: 7360 32fc 1b5f dfbe 3a66 c2b6 475d f83e
000002c0: b4f3 9338 66c1 f3be c2f6 65d8 958b 193f
000002d0: 4efb 08fc f408 2abf b885 d0d6 b307 28bf
000002e0: 8935 22d7 852a 133f 0f2a c313 4e7e 21bf
000002f0: 8b27 24f3 e776 c9be f918 5822 9c80 2ebf
00000300: d3bd a5ac 511b 54bf abec 8b6d 6ade f93e
00000310: 77cb ed46 c3b3 2ebf 1074 f1ca 50b7 29bf
00000320: 7845 cc8f 4329 37bf 79ab dd6e f1c5 16bf
00000330: 5c10 9728 ebde 36bf beda df19 5941 33bf
00000340: 7fa5 ff19 92b0 79be 88ac b1a5 ac42 323f
00000350: e614 8793 5487 4abf 3e6f e8c6 d416 3abf
00000360: faba e107 4d4e 3bbf f11d 9dc0 23bb 39bf
00000370: c485 15fb baf0 5bbf a889 7cae 11e4 45bf
00000380: 49f2 3f63 b0fd 403f c636 2595 8187 10bf
00000390: 26ff a051 2387 33bf 0558 40a1 d9c1 3abf
000003a0: 8cd2 7a4d 841e 3e3f da9f bf9a 8136 49bf
000003b0: 6126 f90a 6475 25bf 33d3 3340 8cd5 48bf
000003c0: 824b 8714 e0bc 543f cb75 8348 06fa 3b3f
000003d0: 6919 9ffe cd37 47bf c8f8 ff51 400a 3abf
000003e0: d83a 143a f0cb 37bf 8554 0445 62b9 21bf
000003f0: 2ec2 756f dcda 3cbf e294 acdd 678b 393f
-4.858705104513605e-05 -0.0002641103101679876 -0.00010944573258434844 -0.00019980061049852015 -0.00012988942208458067 -5.042679412528248e-05 -0.0008641726159994497 -0.0008331743571746968
0.00015620979551705336 -0.0002791721561393686 -0.0007122467409142102 -0.0007678061126079439 -9.638887402463756e-05 0.00015585015721166604 -0.0002321745187815211 -0.0005405400003939507
-0.00028628580566614524 -0.000171060007507027 -0.0005830092466038489 0.00013201519394326103 -0.00011915943614751787 -0.0006954823568417153 -0.00044302951519994223 -0.00029744946835358495
8.254020294568721e-05 -0.0003382410698173011 0.00010329635520077521 -0.0004367524603821519 -0.0006929840051744574 -0.0005380285324774152 0.0002939515925040441 0.0002677023977874957
-0.00019501453685938773 -1.3290171567180594e-05 -4.66829701008187e-06 5.196126576281066e-05 -0.0008628336325785324 -0.00025781583667631444 -0.0004016407792242448 -0.00037912783999220924
-4.273580569178533e-05 0.00021300532833194857 0.00021503794336665704 -3.687849349779546e-05 0.0004856001252043838 0.0003353762697496513 -0.00032071042991801464 -0.00036521347895950875
-0.0002950201792542847 -0.00104077094407239 -5.907308732304473e-05 0.00018006276615501246 -0.0007496881249943087 -0.0007044973907024563 -0.00033209542940131867 -0.0004281754019636442
9.051432156039198e-05 -2.563152612427432e-05 -0.0008933484252570899 -0.00019861272504207862 3.9649942121580815e-05 0.0004128758531247599 2.2888599131149676e-05 6.524355082979424e-05
8.255524048500823e-05 -0.0009527971889169914 0.0005130615028508927 0.00020951757012705174 -0.0004090441084123964 -0.0010286376030562295 -0.0006365652855106025 0.00011777854897784026
-0.00014421108872609317 -0.00030110759133182704 -0.0005575205430890153 0.0002469500155142896 0.0001583895694100812 2.6379760993627193e-05 -0.0006099021054583401 -0.00011789746355797369
-0.001094804749465698 -0.0002958106571912548 4.764337768998434e-05 -0.0005785209646300251 -3.437545256654686e-05 -0.00026724214220355926 -7.479553406096559e-06 2.3235679166155725e-05
-1.8840280550758585e-05 9.744741519132196e-05 -0.0001986311963424144 -0.00018333502103566406 7.311288735164212e-05 -0.0001334638890340832 -3.0356021848463995e-06 -0.00023271470961123262
-0.0012272164918519692 2.4670421086431134e-05 -0.00023423918488737667 -0.00019619809379181662 -0.00035341166930987584 -8.687292185320478e-05 -0.00034898034263287025 -0.00029381203955784394
-9.570169945374718e-08 0.0002786323072487347 -0.0008095896692387444 -0.00039808935881223753 -0.00041665440210796013 -0.00039262411938920024 -0.0017053438171717875 -0.0006680570922735123
0.0005185233371772315 -6.305435571115755e-05 -0.00029797184254575155 -0.00040828288297356546 0.00045958261533066906 -0.0007694371065527464 -0.00016371580339784571 -0.0007578787630381001
0.0012657345088100407 0.0004268899288158683 -0.0007085567315179678 -0.0003973395378124131 -0.0003631078235039448 -0.00013522457675977178 -0.0004402912304249132 0.00038977895535403765

dense2_weights f8 [128, 10]
00000000: 5b78 b07c 0945 edbf 1eaf eccb e9b4 d6bf
00000010: d11a e71b 47d5 f33f 4609 24d2 8f99 b73f
00000020: ba73 47ef dd7a f2bf eab3 a990 5c10 f2bf
00000030: 5c89 db83 54e5 eebf 9e77 4f2f 4ded dcbf
00000040: 07b8 1dc3 1f88 d6bf 6da3 42fc 41fe debf
00000050: b54a 6dad 699e f33f a100 28b9 75d2 d1bf
00000060: 2262 cc06 0148 e23f 70b1 4d29 d41b fa3f
00000070: 3006 7514 c5bd 893f 54fa f561 bb66 bc3f
00000080: 4b77 028b d857 f3bf 1ac5 5e01 ba0e d13f
00000090: 8daa fff7 303a d23f 8027 95ec 1979 b53f
000000a0: 68e2 30d0 7767 e73f e84e d3f9 2d5f cfbf
000000b0: ea68 af62 54b7 60bf 2345 d259 064c f6bf
000000c0: fe78 4361 e431 f3bf f03a d09b 8131 d43f
000000d0: 8ef2 8a7e c5fd f53f 4f5b 5fe8 ca4a d5bf
000000e0: 7e59 c19a 76f1 e5bf 31c2 06a6 18a7 f3bf
000000f0: b1f9 38de 92d2 fabf c71d 958c 2769 633f
00000100: 6184 157d 9b5a c0bf 679c 9295 5a10 d5bf
00000110: 26f1 972e 4de7 ed3f b442 34e5 9970 e6bf
00000120: cde7 3bb3 e979 d33f 7aea 7c0c 5c1e f63f
00000130: 1ad8 eb1a 4d33 f1bf 682c 138f 309f debf
00000140: ac9f 995b fba5 e53f e558 2f6d 110d b8bf
00000150: 5b48 a238 4efa 96bf c979 2898 bfa5 c03f
00000160: 642c 8b6a 51da dcbf 9fe8 57b2 beda c53f
00000170: 9d4d eb15 0ba8 ee3f a950 f206 9592 a7bf
00000180: 1a4f c385 778f b2bf 9c93 4526 de12 b53f
00000190: af9e 5493 733c 0640 6283 5720 08a9 d03f
000001a0: ece1 131c 827c ed3f f32d a566 1d70 f33f
000001b0: 6155 e322 0c1e ca3f 9349 1075 aad5 eb3f
000001c0: 6fbe 4f75 a662 fabf c660 1a3f ea9c a03f
000001d0: 1177 f729 fa36 d53f dd8b 4116 c127 cc3f
000001e0: 9141 fb4b 79b9 d83f 051d 3bad 7bfe e2bf
000001f0: eefa 96fe da70 ef3f faa6 29ad a686 a63f
00000200: e670 a5a1 5f96 f2bf d605 5b77 56e5 cdbf
00000210: c72d 9554 cade be3f de98 73ff afde f1bf
00000220: da68 bbaa cf3f d53f 2ff5 9614 e076 dbbf
00000230: 5485 609d 99f7 cb3f 4ed8 d472 5cd6 f13f
00000240: 70fb bfa1 b0ba cfbf dc66 b350 5141 ea3f
00000250: 36c5 9dbd d043 f2bf 86ff 3e85 0e0c c3bf
00000260: 79b6 f6dd ba10 e93f 9efb edea 09c1 eebf
00000270: 4c6d 70f8 3206 e33f 585a 209c 1eb2 c9bf
00000280: 144e 803b 603d bfbf 5bbe 236b 4bd7 c63f
00000290: cb80 24db a93d c23f 2068 40ce 73b6 e4bf
000002a0: ca21 ebf2 b31d ccbf 7477 d493 b6fb ec3f
000002b0: 2ebe 34d3 03ec b5bf 9747 2b63 5812 df3f
000002c0: aa58 c35e 905a d6bf ddc5 b7a1 dbbc d1bf
000002d0: 7b03 2274 401c eb3f f237 9b22 92db da3f
000002e0: 3abb e901 2d6f d6bf a0ce 7153 94d9 d4bf
000002f0: 14ff 762a b74c 853f eb1b d862 f4cc ae3f
00000300: 3285 1e28 465f ee3f be3d 1ff8 9c6d f5bf
00000310: a4bc 4994 ea4e 7fbf 4e85 ff0e 391a f73f
00000320: bdb7 1e23 2d61 d83f a8d3 725d da4c ee3f
00000330: 14d1 52ac a3b1 e63f 6cb1 dada 6361 f1bf
00000340: e1c9 a7fa aaa2 f83f 0e35 a8fe b8e5 d43f
00000350: 696e a7ba 6e81 fabf ccd2 9f95 ffb1 efbf
00000360: 93df c74f fd6d d93f 1b3a b8ad f6e9 e6bf
00000370: c65e c6f3 0b91 e23f 4960 ed51 8061 f43f
00000380: 62dd 5b1f 103d f2bf 402d 3ada b787 9bbf
00000390: 09f8 da0f 3629 e1bf 753b 1149 6bc5 e3bf
000003a0: ec0a 36c5 b26d 00c0 8557 de61 98d0 fabf
000003b0: f6a3 c902 af84 a93f dd91 b55b 0191 fdbf
000003c0: 19da 255e c267 e03f c98f c10b c01b f53f
000003d0: a84a 3845 e53c d9bf c0f1 60c2 236f e4bf
000003e0: 399c 9c0e ef6b e63f 950f 8ca0 cf2b d33f
000003f0: 09b2 858a d66f e2bf 6a68 5753 d847 c53f
00000400: ae4f 1cc9 a20f fcbf 9760 3d2d e8c5 d43f
00000410: 97b8 a9cc 4b04 f63f d404 94e3 b482 db3f
00000420: 6a47 e8b8 ab75 a5bf b3aa 7c07 be09 f43f
00000430: fd1e 257c cf7a ad3f 91f2 8628 5dfe c43f
00000440: f3e6 698b 3879 f1bf a5b6 8f26 dae7 f2bf
00000450: 7a23 91c8 584c d0bf 9481 e930 ea07 d03f
00000460: f0b8 7a84 1a64 ec3f 9a03 d559 1603 b23f
00000470: 851b cf99 78f9 ef3f c79c 3feb 4608 d03f
00000480: a923 41fc 4e30 b2bf 48d2 50f7 ca9e f43f
00000490: fcd4 f227 7e51 c43f a23f 747f 7ffb ecbf
000004a0: 2a21 4936 1883 de3f bfef 6dfd 2a12 b93f
000004b0: 30d8 1b65 f619 f6bf bf27 371e e781 d63f
000004c0: 7399 8b2d 7e20 c23f 2624 683e b2b7 8ebf
000004d0: 4e81 a151 8c3b de3f cc0e 7d49 e33d e43f
000004e0: a5c7 782a f8fa f9bf f635 7387 a86a ffbf
000004f0: 7dd3 5d36 4cd1 e23f 5c57 661b dbd4 b73f
00000500: 482e a30b e007 cbbf ed95 216f 30f8 e63f
00000510: 1cb6 f80e 7deb bd3f ad5c 08c5 27ad f63f
00000520: 9265 7ee8 2dca a8bf ea7b a4ae 46d4 d8bf
00000530: 1a89 dc33 e689 e33f eb2a b60f 94f6 753f
00000540: a31c 6d27 3a65 f4bf c450 9663 3ba8 d63f
00000550: 4ec9 fbde 4625 e43f ea42 6d67 87e4 c43f
00000560: 632c ca3e 0a20 f6bf 90b6 eb45 48ad bd3f
00000570: 76db ab09 8adb e13f 4ba0 0270 f51a c1bf
00000580: 9985 59f2 4879 be3f 0fce 2799 0757 d4bf
00000590: 82b7 e4d8 ea97 e5bf 24a1 33ad ed86 d93f
000005a0: 92be 5f88 6303 f4bf 1eba ae7e 1209 f9bf
000005b0: 29fa 5de4 bad3 d5bf cd50 ad45 0850 f13f
000005c0: 40c7 9e41 c0ee f83f fb73 d57e f626 d7bf
000005d0: efb3 2bab 2c02 fdbf a097 db17 d5e4 e8bf
000005e0: 6400 2bc6 943a f1bf 33ae 555d 70d1 03c0
000005f0: eaa3 5038 483d e93f 162b 7b9d dc52 eabf
00000600: af2e 2d43 bd24 cb3f bf2c d792 cdff d23f
00000610: d2f0 6ada 1ceb f03f 4b4c bd27 104d 0040
00000620: d5c9 fde9 8153 dfbf 24fa 1ca7 d562 d53f
00000630: 8ff6 2755 e2a9 d6bf b716 741e c00b 0040
00000640: 9efe 9c0e 03ed d63f fbfc 90f3 9c81 db3f
00000650: 6e72 dff7 15a2 c83f 9a43 bd5d b8f8 e63f
00000660: 1e75 140a de4a ea3f e452 97e4 c299 e53f
00000670: ef50 aaf1 fcf0 e83f 57b6 aadf 9d52 e2bf
00000680: 6101 128b 6b14 ec3f 6e36 931d 7b2f f53f
00000690: 1785 24b2 8622 edbf 0c6a 74ee 360f d8bf
000006a0: 22d2 4e38 0b4f ef3f f2bb bc25 df3b e43f
000006b0: f6ca 0f32 9e9f 9c3f 6e86 47fd ecbf 02c0
000006c0: 24c5 092d 49d2 f6bf 2a62 9d9b 4007 cebf
000006d0: 084c bef8 924d f8bf c99d e2f5 1d8f d5bf
000006e0: dee0 bbc8 9263 da3f dcdc da3f c2d4 f03f
000006f0: af0f 9c34 9e8a e43f d0f5 45b7 ebb7 0340
00000700: cad3 7348 304c f03f 5a94 44fd 55e2 d93f
00000710: 5572 f7cd 1a22 e33f 231f 9050 df79 f4bf
00000720: 776f c62c cd62 dfbf ea65 9e3a c8f3 debf
00000730: 3989 9a72 491d ed3f 4885 dbc8 924b e9bf
00000740: 8746 e83a 7cf1 c9bf c7b2 c3a5 fdda d9bf
00000750: dc66 cfca bcb2 d73f 825e 4ba3 bafe d0bf
00000760: 54de 8b20 b10a e33f c0f8 0f58 cdd7 c7bf
00000770: ada0 71af 34ec c53f 10bc 05ee 840b ef3f
00000780: f142 ce9c 9fb0 e43f c481 79db fb8b ec3f
00000790: 9b39 cd91 3ab2 e03f 60f2 8ee4 3c7b e13f
000007a0: 7a37 15af ddf0 debf e117 7148 ace4 f53f
000007b0: a986 3a80 6a62 b9bf 1b13 9573 9f53 d4bf
000007c0: caa5 99f6 aaa3 d53f 8a68 0d25 4daa f13f
000007d0: 934f aadd fe39 ef3f 2cee c8da 3c08 e53f
000007e0: 088c 4306 73a1 d9bf 52f8 d08d b036 ccbf
000007f0: a8ff e3eb cad0 c7bf be9d 3cbc 4e26 d93f
-0.9146773753489116 -0.3547920695734649 1.2395697679473197 0.0921869171179753 -1.1549968096580714 -1.128994526948413 -0.9654944014876423 -0.451983734323102
-0.35205835394197077 -0.4842686618308594 1.2261750006188497 -0.2784704502264593 0.5712895520001136 1.631794129697564 0.012568988501359873 0.11094256536123598
-1.20894674587858 0.26652383931930645 0.2848017141210811 0.08387910867636883 0.731380373595198 -0.24509215067393275 -0.0020405433801730004 -1.3935607441565672
-1.1996806907041555 0.3155216237654903 1.3744559233738616 -0.3326899785292214 -0.6857255003513243 -1.2282949910551333 -1.6764095955437421 0.0023694775051443548
-0.12776511771793067 -0.3291231594725503 0.934485045435882 -0.7012452580111899 0.30431597235985636 1.382412003308359 -1.075024705086895 -0.4784661671844277
0.6765114583076772 -0.09394940295837591 -0.02243921490350718 0.13005824021906978 -0.45082507519391 0.17073806484387874 0.9580130985363443 -0.04604020795628234
-0.07250163093277387 0.08231914934510914 2.779517317790883 0.2603168788755764 0.9214487598792949 1.2148717889384641 0.20404197410122563 0.8698322569273834
-1.6490845282059146 0.03244716663647433 0.33148054216677375 0.21996320330353472 0.3863204233175788 -0.5935648330131761 0.9825262997108817 0.043996056211495785
-1.1617122949892802 -0.23356133296878906 0.12058701100357104 -1.116867063386557 0.3320197264962538 -0.42913057337485133 0.2184936541025687 1.114834259567505
-0.24788482568689174 0.8204733444392462 -1.1415564925085397 -0.14880544191509787 0.7832922301510755 -0.9610642994374421 0.5945067264869208 -0.20074827788694694
-0.12203027203241162 0.17844526988436624 0.14250682068177975 -0.6472720173217148 -0.21965646134618871 0.905726708155028 -0.08563255220791952 0.48549470600584627
-0.3492775845928785 -0.2771519736553197 0.8471987026424438 0.4196515405609481 -0.35053563296144186 -0.32577999256975865 0.01040022943823219 0.06015742975801416
0.9491301330164446 -1.3392610256449724 -0.007643619847484438 1.4439020715584152 0.3809311717003501 0.946881468311962 0.7091844907468237 -1.086276869678012
1.539713839648009 0.32652115696767303 -1.6565997401402461 -0.9904783174848375 0.39733822623338105 -0.7160600083314564 0.5802058945873447 1.2738040161402913
-1.1399079537348702 -0.02688491124585579 -0.5362806615519286 -0.6178490092369048 -2.0535636336438667 -1.6759265730847528 0.04984042080906896 -1.8479016859429216
0.5126659239602446 1.3192749461386362 -0.39434177169565965 -0.6385668560465589 0.7006755147348321 0.29954901388577443 -0.5761521058571485 0.1662550360622988
-1.7538173538095907 0.32457928102440675 1.3760488505027177 0.4298526976054522 -0.041913381883332004 1.25237849163629 0.05757759466592736 0.16401257017959783
-1.0920949407431493 -1.181604529028314 -0.25465983950248694 0.2504830815942338 0.887219675778196 0.07035960858503501 0.9992030147630976 0.25050518964276275
-0.07104962976985853 1.288767782284724 0.15873696280110738 -0.9057004441583454 0.4767513780721112 0.09793347060434508 -1.3813384961663466 0.35167863798835336
0.14161660407917118 -0.014998810319427913 0.4723845288445049 0.6325546679804233 -1.6237718257002396 -1.9635396281258841 0.5880490362020364 0.09309167307796201
-0.21117783134683266 0.7177965326815731 0.1168745194961151 1.417274255427212 -0.0484175058656532 -0.38795630507405454 0.6105834019583967 0.00536210857843387
-1.2747136631094598 0.35401806569394645 0.6295503955027841 0.16322414922844725 -1.3828222706531725 0.11592532832193059 0.5580492199795646 -0.13363521546603105
0.11903816143742176 -0.31781187016096707 -0.6747946010780057 0.39886037744737934 -1.2508273436650694 -1.5647149036918857 -0.3410479765078969 1.0820391389616362
1.558288818673148 -0.36175310503114105 -1.8130308805805233 -0.7779336420032799 -1.0768020382820618 -2.4772650996945003 0.7887307262327543 -0.8226149631312605
0.21205869464971758 0.29686297740836304 1.0574005634253365 2.0376284699100657 -0.48947189188689083 0.3341573841061367 -0.3541189033129308 2.0057375315835446
0.35821606089664637 0.4297859552934395 0.19244646647611624 0.7178613501401856 0.8216390797494204 0.6750196900053109 0.7794174881005612 -0.5725850456708014
0.8774926868646099 1.3240920214915621 -0.9104646186207529 -0.3759286240253068 0.9783989047778656 0.6323085534148716 0.02795264416267692 -2.3437137401058896
-1.4263393172553345 -0.23459632490518462 -1.518938991216375 -0.3368601704810002 0.41232747652931134 1.0519430631955435 0.641921141389039 2.46480506117107
1.018600733773598 0.40443944676582577 0.5979131720337799 -1.2797539851180282 -0.4904053628213129 -0.4836292812775286 0.9098250616409934 -0.7904752657888503
-0.20268204571089063 -0.40399113834318395 0.3702842693870545 -0.265547427622984 0.5950551639243238 -0.1862732582084785 0.1712709290179694 0.9701561592936532
0.6465604841815474 0.8920878683675757 0.521756443756931 0.5462936843901609 -0.4834512910646179 1.3683283643490471 -0.09915795927602268 -0.3176039341672536
0.3381144912915174 1.1040774772032216 0.975829537334436 0.6572555802480955 -0.40047908412651667 -0.22041899609206667 -0.18605934637161892 0.39296310789583433

dense2_biases f8 [1, 10]
00000000: d258 1845 507f fabe e2a0 7cfb fed2 1c3f
00000010: a070 e6c3 7ddb 0bbf 5173 429b 368f 20bf
00000020: 25ae e7f6 4a98 153f 1aa9 4f47 2956 323f
00000030: 61aa bf71 fe88 a23e bcb2 3196 5131 2a3f
00000040: 935d f9bd de5a 41bf 0649 9fe0 5137 103f
-2.5269812175287444e-05 0.00010995560921556486 -5.313375048674016e-05 -0.0001263384016326982 8.2377982586195e-05 0.00027979381348920836 5.523899946323736e-07 0.0001998340695509494
-0.0005296313865511985 6.185948600937263e-05
