models/model_2025-02-21_21-37-41.npz (npz, 815218 bytes, 4 tensors)

dense1_weights f8 [784, 128]
0.525550959094307 -1.1156539138486934 1.8282746332737667 -1.7970401020713818 -1.52546612248951 -0.4280806169587474 -0.4882897340123417 -0.7143006116777884
0.6199448841919322 -0.22877443905355938 -1.5713455205721563 -0.9600193917119222 -1.9300229781561622 1.7540595546614126 -1.7613099012021136 0.6286725492535653
-1.9606817969365686 -0.0536026615937646 -1.1426492251425926 -1.3245544854013251 0.6405277780128252 -0.3122637547271767 1.589789518260916 -0.508423284004716
-0.4997517385751172 -0.816555622255949 -2.5180108045447445 1.067384551482762 -1.0629650828954424 -1.2420185389468004 -0.7450748400401747 -1.224516397237888
-0.22224683261792244 1.3076207888631664 -0.3458101224749444 -0.03903568168602925 -1.160760915373957 0.20880678870425065 -0.4940369493964772 -0.9718588570269986
0.4895439559363197 -1.2088479101954548 -0.8295460386947476 1.0875819377824738 -0.011250867575477256 -0.9790479616233132 -0.5227404395811021 -0.6359358370106604
-0.011541959661554302 -1.056345516471931 0.035702057367149674 -1.818800567862711 -1.33286431170391 1.2359677027399145 1.1838522386658457 0.9039578856777213
0.9299752349547319 0.2581649233635152 0.34078738155686406 0.11817984859521688 -0.8531540270100559 0.11638959815717362 0.29554509604350454 -1.632672812313825
0.9818866550481248 -0.46499989004199554 -1.4352272812123203 -1.2061401046525908 0.2417463752414001 0.2803405591932981 0.41659502536367077 -1.2106022957650506
2.0473376887361074 0.2744920264621863 -0.625368345179289 0.6653946659444173 0.4897212095784395 -1.020824822687457 -0.348501812057291 2.3022711605244104
1.1151861053503151 -0.2507731425109542 -0.38987035200847175 -1.9532727047322578 -1.7953334823131204 0.6147174935917702 0.9118248653877958 1.2030743496860974
0.8522062428138482 0.8290430567723074 0.7693024031815905 -1.715530010405293 1.2777585469393244 0.9768655516647189 -0.1286699935683859 -0.2532940943700811
0.21500028675860175 -0.24778418395251425 0.778056964433055 -0.6863411390317198 0.0872474857354652 -0.822012363089908 0.22458692291924823 -0.5563300444976604
-0.607650779779906 -0.45427607724261015 0.245306372852546 -0.10287299777566604 -0.701353260832549 0.5448583810418179 -1.3156648904689598 0.453039548876584
0.04744750290788219 0.00484660691712505 0.11375432048276997 -1.0117597497715074 0.841877035918471 0.3305616947118354 0.7385689214732433 0.07695855774569384
0.6825388077633509 0.5108038870383861 0.38254586129510937 0.15789192601704305 -0.6806985404684849 -0.6356667615419258 -0.6015486455077959 0.31877099021523564
-0.15260282926264643 0.7312090223123711 -1.5874665690494512 0.8292800989283764 0.16986919197033887 -0.37599606971914057 -0.46593405924846204 -0.3540419506926331
-0.9642660853557538 0.826675030443311 -0.377868109140817 -0.7360323246231134 2.8260612542734713 0.21993691997266643 -0.9795869736028952 -0.6635088319658317
0.1492347328770367 -1.7715217335791946 -1.2994244553489607 1.4834307009473833 0.33367607928887344 -2.123997114318104 1.4210932339897286 1.8012396556952008
0.13683770088828415 -0.9953866222317937 0.20756451118050612 0.5435088239653577 0.45608461735973077 0.3694605503886733 0.07873183655278947 -1.652220214848631
-1.2398916247816796 0.70940190320496 0.6759930315075153 0.03839721606313931 -0.06176378502111717 -0.2418586767648092 0.25350444515033693 2.1215454617591987
1.0236878579719706 0.4899910492645058 0.6845938147956234 0.060376630829920314 -0.599712587959736 1.5044530746003473 0.2185255345630449 -0.4231458655517955
-0.5080536794186663 -1.5043428438041864 0.5386986096405831 1.5484798179139738 -0.594946658200332 0.1706662445860482 0.8334695920676306 1.6264260920003994
0.494955735030051 -0.05063971935392685 -0.5206244099807567 -0.31142894442545416 1.2787606076676588 1.3765241476576253 -0.34902040960766567 0.4015407193336986
0.22905604023815546 -1.2594886071442126 -0.8244005929174938 1.307294864090105 -0.9506137978922594 0.1216735226366782 -0.6553700398262505 -0.7854321850197873
-0.19508346150478742 -0.7535314937365858 -0.12453450421426933 0.7147061714626451 -0.11711693424015387 0.11512202095977017 -1.3209384749741115 -1.3173720856464348
1.5445626663429592 -0.5746839369475306 0.014580859060257568 -1.1743660897065213 -0.447301731224298 1.1238077707918577 0.5691022738822704 -0.5395946506973631
-0.9045580135099063 -0.19797747139948862 -1.5304366849607332 -0.13686597584477295 -0.1816168827283942 -0.1526733376159272 -1.17298590016535 0.5339042616773048
-0.050905690266836424 0.8853549628080615 -0.25281283325617815 1.01339774154783 -0.5164488788552317 -0.369266837296295 0.4219054582777403 1.3975222512098446
0.33685494739149763 -0.9591761796300157 1.6224326850396982 1.5512557608998778 0.3880797325814358 -0.3850382659508949 0.22244052087357272 1.7869759386464146
-0.003642446192573351 -1.331988720927758 -0.4410737440852537 0.02780876393250717 1.1894556629065376 -0.6266130097634763 -0.46790054563281225 0.6574993715059004
-1.0152309491199636 -1.0087988015314224 -0.6892321576277312 -0.007204289286591851 1.9681407239768292 2.2228592840992474 -0.9618171094803666 1.0343596716579857
00000000: a020 b63e 50d1 e03f 1327 1aeb b7d9 f1bf
00000010: 8a46 e0e6 9c40 fd3f 11f4 3f1f adc0 fcbf
00000020: 59f9 332a 4f68 f8bf abea 783e ac65 dbbf
00000030: 138e a395 2340 dfbf 9a67 d5f4 8cdb e6bf
00000040: cea8 5da7 96d6 e33f 02a9 f216 7b48 cdbf
00000050: 152d 5933 3b24 f9bf 6eb6 5d96 7ab8 eebf
00000060: 0b59 3bc6 5fe1 febf 0c1d 68c0 a010 fc3f
00000070: 8c8b 7c4a 532e fcbf 01fc dde4 151e e43f
00000080: fd47 3be0 f35e ffbf 222c 0cdd ce71 abbf
00000090: 4698 cc8d 4a48 f2bf cf19 490b 6031 f5bf
000000a0: 07d4 571c 347f e43f 84e1 911d 21fc d3bf
000000b0: 8644 4722 c76f f93f d667 2ae8 0045 e0bf
000000c0: 3d27 53b7 eefb dfbf 0f89 9e41 3921 eabf
000000d0: 61f4 43d9 e224 04c0 47fc cdd2 0114 f13f
000000e0: b336 bdac e701 f1bf dad5 dcd4 4edf f3bf
000000f0: 7d70 e130 a7d7 e7bf efd6 7881 9e97 f3bf
00000100: 64e5 dd8e 9572 ccbf d6ca bbc6 03ec f43f
00000110: 05f6 a9c7 c021 d6bf 54e7 6f20 7cfc a3bf
00000120: 4519 a009 7a92 f2bf e971 554c 2eba ca3f
00000130: 3d1a 2b27 4d9e dfbf e648 e8be 7719 efbf
00000140: 80dc 2c2c b054 df3f ed09 02e8 7057 f3bf
00000150: a10c 5722 a48b eabf bfef 6751 bc66 f13f
00000160: 1571 4ee2 b10a 87bf 2a67 0c64 5c54 efbf
00000170: 1985 8928 4aba e0bf e515 ca1c 9659 e4bf
00000180: a09a 399a 4fa3 87bf eb5e 688e cae6 f0bf
00000190: eb69 9541 8a47 a23f 48aa ce9f ce19 fdbf
000001a0: aa61 4c87 6953 f5bf 07e2 e211 86c6 f33f
000001b0: eedb 850b 0ff1 f23f ce4e 7e16 39ed ec3f
000001c0: 400e 876c 5bc2 ed3f 6f85 b42b c685 d03f
000001d0: f046 abe0 75cf d53f 863f c3d8 0841 be3f
000001e0: 3caf 8eac 094d ebbf 0efd ad6d b5cb bd3f
000001f0: 8200 80fa 35ea d23f b24c df86 6d1f fabf
00000200: dbef f98f 9d6b ef3f 13ef 17e6 8ec2 ddbf
00000210: 8024 b2e1 b0f6 f6bf c307 fe90 594c f3bf
00000220: 4d4f cb93 8bf1 ce3f 7790 5e87 19f1 d13f
00000230: 983f 672e 7ea9 da3f e55f 4c83 a05e f3bf
00000240: 21eb 0795 f260 0040 2abe 2a01 4791 d13f
00000250: 3bf5 cf79 0403 e4bf 7340 25c1 e94a e53f
00000260: 6301 d3a0 9757 df3f b833 c668 4c55 f0bf
00000270: da7f 588b da4d d6bf 7bcf 6724 0d6b 0240
00000280: 72ee b662 cdd7 f13f 362e 73cb aa0c d0bf
00000290: f69b e3c6 a2f3 d8bf 85e9 2fe1 9a40 ffbf
000002a0: a82d ff99 afb9 fcbf 0b2f 6805 c4ab e33f
000002b0: 5ca5 1057 ab2d ed3f 9eee a8e3 ca3f f33f
000002c0: f2a3 ca06 4645 eb3f 8903 fa4d 8587 ea3f
000002d0: bcc5 cc12 209e e83f d5f4 9f98 cf72 fbbf
000002e0: 409f 34f2 b271 f43f 9ca5 9f8b 7b42 ef3f
000002f0: d726 2d23 4278 c0bf 52b9 e56e f835 d0bf
00000300: e520 2120 2185 cb3f 6d63 4563 64b7 cfbf
00000310: bc47 15b8 d7e5 e83f ce4c 41b1 81f6 e5bf
00000320: 5c5d e4e9 d955 b63f 651f 0cdf ec4d eabf
00000330: a512 86a8 43bf cc3f 26ca 5caa 74cd e1bf
00000340: 2065 510c e071 e3bf f72d c7f7 db12 ddbf
00000350: f176 7300 3366 cf3f f784 1681 e255 babf
00000360: 0c00 c764 7c71 e6bf eed5 f0d7 7a6f e13f
00000370: 24f4 d0a0 f60c f5bf a50c 8e97 99fe dc3f
00000380: d84d 8802 0a4b a83f a537 4a23 09da 733f
00000390: 2d90 40ce 001f bd3f 23d8 cafd 2a30 f0bf
000003a0: 77be 101c a8f0 ea3f 3640 063d ec27 d53f
000003b0: ef39 724a 5ba2 e73f d942 aa58 8eb3 b33f
000003c0: 8305 33a0 5bd7 e53f 49fc af64 8158 e03f
000003d0: b0e3 dea2 a17b d83f e8d7 4579 cd35 c43f
000003e0: 0ae8 374e 48c8 e5bf f641 ffd1 6157 e4bf
000003f0: 3017 edf1 e23f e3bf 8dd4 7870 be66 d43f
00000400: cfe5 7a50 7d88 c3bf 86e5 ab76 1066 e73f
00000410: b4f8 5858 4366 f9bf 68df 036b 7689 ea3f
00000420: 8b26 0e10 46be c53f 5291 b7d1 5110 d8bf
00000430: 9123 a416 ddd1 ddbf 08c3 e891 9fa8 d6bf
00000440: 47d6 a78c 44db eebf fa8f 8531 1f74 ea3f
00000450: c583 bdb8 fd2e d8bf 9bc3 61a9 938d e7bf
00000460: 45c7 bc00 c69b 0640 d997 3b9b e426 cc3f
00000470: 1dc9 e6c7 c658 efbf 21d0 bcdf 763b e5bf
00000480: 702c 91ac 1f1a c33f 8c03 5e2c 2758 fcbf
00000490: d98a 354c 71ca f4bf cd38 a7d4 21bc f73f
000004a0: aa34 00ea f25a d53f 675b f632 f2fd 00c0
000004b0: 1bd8 4842 ccbc f63f cb81 57ac e0d1 fc3f
000004c0: bf66 16d5 e583 c13f 1691 ab0b 35da efbf
000004d0: d44d aa51 7991 ca3f a398 009e 6c64 e13f
000004e0: ab32 f188 7d30 dd3f 7e37 45dd 3da5 d73f
000004f0: 97f3 2507 c527 b43f 170a c976 7e6f fabf
00000500: 8b58 b099 98d6 f3bf e588 bf9e 6bb3 e63f
00000510: f4c1 5423 bca1 e53f 544c 7fc6 cca8 a33f
00000520: d759 7cb9 809f afbf 60b6 7aa1 39f5 cebf
00000530: b7ec 53b5 6a39 d03f 23dd b9d3 ecf8 0040
00000540: 9cd4 f484 0661 f03f 2b1f fb6a 035c df3f
00000550: 28ea b249 31e8 e53f 64df b68d afe9 ae3f
00000560: be2b 0974 d830 e3bf f966 1c63 3d12 f83f
00000570: 5c04 250c a5f8 cb3f 81e2 7e65 d214 dbbf
00000580: 86e6 36ca f941 e0bf 16c5 41cd c911 f8bf
00000590: bdd2 d9dd 043d e13f 0a4e 07c6 92c6 f83f
000005a0: a2b7 fa92 cd09 e3bf 859c 8339 64d8 c53f
000005b0: 8982 046c c8ab ea3f 7b0b a85d d705 fa3f
000005c0: 4ffd bad1 5aad df3f 6fe9 0105 73ed a9bf
000005d0: 90bb cb85 f4a8 e0bf b972 d5aa 73ee d3bf
000005e0: e987 d5ae cd75 f43f 1b80 452f 3e06 f63f
000005f0: 54b1 39b3 5956 d6bf 383c 63d8 d7b2 d93f
00000600: f216 e354 b551 cd3f 5de7 9586 dd26 f4bf
00000610: d246 2c5a 7d61 eabf a8ee f704 aeea f43f
00000620: ff5a a2a0 6d6b eebf 797e 83f8 fe25 bf3f
00000630: 729f fa96 caf8 e4bf 8958 7cad 4222 e9bf
00000640: 19a7 93af 7ef8 c8bf 6a59 4314 ee1c e8bf
00000650: 8de8 d246 7ee1 bfbf 45ce 157a dfde e63f
00000660: be86 5e1a 60fb bdbf f656 1203 a378 bd3f
00000670: b8ab e061 9022 f5bf 693c 88c0 f413 f5bf
00000680: 930c a957 87b6 f83f c93c 5791 cf63 e2bf
00000690: daba 7dc6 91dc 8d3f 7422 cd18 34ca f2bf
000006a0: d95c c370 97a0 dcbf c6aa 68db 1dfb f13f
000006b0: 2eea ccf8 1536 e23f 5bef 3a00 5c44 e1bf
000006c0: 4483 aba5 23f2 ecbf d0b6 8066 5357 c9bf
000006d0: 7f14 682d ab7c f8bf 561e 1805 d384 c1bf
000006e0: 5a26 dcd5 383f c7bf 9d0a 04c8 cc8a c3bf
000006f0: 9c11 fedc 8cc4 f2bf 6b2b e363 be15 e13f
00000700: 4db3 c085 4f10 aabf da94 53ee d354 ec3f
00000710: 6d0a b6e0 152e d0bf 6d9c dc8c e036 f03f
00000720: 98a6 97cc bf86 e0bf 0fd6 6b5f 11a2 d7bf
00000730: 66a2 53c0 7f00 db3f a90e c64a 405c f63f
00000740: c3b4 a20d 088f d53f d59e 533e 92b1 eebf
00000750: c24f a3f9 7bf5 f93f c1be 8c8f f1d1 f83f
00000760: 505f eb5f 4cd6 d83f e1ed fd89 77a4 d8bf
00000770: 8985 3a55 ee78 cc3f a39a f314 7497 fc3f
00000780: da0c c968 c3d6 6dbf d368 b067 d34f f5bf
00000790: a81b 7e5e 8d3a dcbf 587a 878e e679 9c3f
000007a0: f99b 43a9 0208 f33f 12d5 05ba 360d e4bf
000007b0: c480 5121 15f2 ddbf c944 381f 3c0a e53f
000007c0: 6fb7 c5ce 623e f0bf ad24 4d36 0a24 f0bf
000007d0: 9a9a 0b99 300e e6bf 5184 07ae 3e82 7dbf
000007e0: fa7f b620 817d ff3f a987 c672 6ac8 0140
000007f0: 1572 beac 34c7 eebf 5528 21ba bc8c f03f

dense1_biases f8 [1, 128]
-0.0014118047679885393 -0.0002849005174018793 -0.0007669020564436663 7.678342074795763e-05 -0.00013664651760350707 -0.0004596719562148605 -0.000318006678882186 -0.0004589677262312372
-0.0006957168912094063 -6.602041131610918e-05 -0.0007598196907827765 -0.0002525682447692581 -9.069211563233557e-05 -0.00023638435433490836 -0.00048215093228854366 -0.0004585253672754638
-0.0010720993614507894 -0.0010994065740987295 -0.0005373015398284862 -0.0008563126495018665 -0.0008805810871346482 -0.0009602339497934117 -0.0004254181078557001 -0.0010947175318555594
-0.0013246684530279084 -0.0014337822698968997 -0.00032070079086030665 -0.0009645555720726205 -0.0005045673799869664 -0.0005521638843050983 -0.0006307375262638102 -0.0003248438155318937
-0.0006258853849859956 -0.0011912393157797474 -0.0007699654291078004 -0.000952236580878826 -0.0006395596097842762 -0.0002956385160684981 -0.0006186392110055662 -0.0013238874118090866
-0.0006981051885046385 -0.00011841681556209077 -0.0009175835642042341 -0.0008655013124227442 -0.0005131292909628519 -0.000492963559609042 -0.0016872874166967654 -0.000258549556102909
-0.0004843240017006487 0.0002392334974742337 -0.0003070455366851154 -0.0004896115840442355 -0.0008009739913755527 -0.000757307958365463 -0.0007393435590123264 -0.0013740368322108715
-0.0009038055920034785 0.000265936704047927 -0.000795126538603312 -0.0006554734317128023 -0.0007032749584488491 -0.00021647132977421277 -0.0006186429396679038 0.0002256453942985048
-0.0010866843014863683 -0.0010407131843015967 -0.00024104167831037507 -0.000360001989415951 -0.001206108491743731 8.282744654861753e-05 -0.0005163836984189051 -5.801914982825553e-05
-0.0006223889881937161 -0.0006792821975060068 -0.0009195762107145582 -0.00046913553861788106 -0.000662822494823665 -0.0001306538735997907 -0.0008820389002555378 -0.0010612603291853086
7.644897709011267e-05 -0.0009656904511150199 5.7090943525447975e-05 -0.0012621671559688355 -0.0007612849367269193 -0.0006073920007616714 -0.0011866735171855458 -0.0006681583629904565
-0.0012138187364740215 -0.001743491937157172 -7.996007993127109e-05 -9.757656250585414e-05 4.368078164721676e-05 -8.372510741102682e-06 -0.00029941800615611395 -0.0009653181188521074
-0.0006748728725817776 -0.0009406354648743911 -0.0017981651507221188 -0.0002381698429236539 -0.0013236282447537766 -0.000309941490368252 -0.0002989048595272758 0.0005277066634786424
-0.0007355459482833007 -0.0003060277345966161 -0.0012047001828837136 -0.0006249758345651075 -0.0017442164690713226 -0.0010307703686975246 -4.7727064595127315e-05 -0.0006303795771437907
-0.00041329793972148885 -0.0002362584149886641 -0.0011336585433669884 -0.0010901184296381332 0.00044310060453077313 -0.0004144246563504602 -0.0007099990918715789 -0.001216117902434085
-0.0002359303533291425 -0.000679307692852069 -0.0005882375124847402 -0.0014570613068131105 -0.0015051605951571575 -0.0003289204803535906 -0.0009658325748167539 -0.0010376321863529024
00000000: 4d64 a3d3 8921 57bf 3e8c a467 d6ab 32bf
00000010: e76a 36a0 3d21 49bf fa2e bb1f d920 143f
00000020: 2c14 00a6 18e9 21bf 9a1e d204 0420 3ebf
00000030: 4532 2449 44d7 34bf 57e1 c35f 3314 3ebf
00000040: 5630 c3a5 18cc 46bf e084 a607 8e4e 11bf
00000050: 9fb0 835c d4e5 48bf 3747 ee59 648d 30bf
00000060: 9ece bdae 3ec6 17bf 135d 6e24 befb 2ebf
00000070: 5cf0 647c 2699 3fbf 2d1b f374 c70c 3ebf
00000080: b0f7 82ec b590 51bf d9fe f7d1 3e03 52bf
00000090: 50e9 5445 369b 41bf fcc9 9169 450f 4cbf
000000a0: dd88 407c d9da 4cbf de70 97b4 0677 4fbf
000000b0: 7bf9 40dc 54e1 3bbf 96f2 d9ff 93ef 51bf
000000c0: c257 c3eb 0fb4 55bf 68d8 5cfd b77d 57bf
000000d0: 687e 9668 7704 35bf 1da3 9051 479b 4fbf
000000e0: e064 a532 9e88 40bf 179f 9de9 e217 42bf
000000f0: 46d2 1986 02ab 44bf bf70 6390 f949 35bf
00000100: 8e3c 39a1 4e82 44bf 057b ca79 6b84 53bf
00000110: 6e10 252b f03a 49bf 7df3 887c f033 4fbf
00000120: 7d8d cecd 03f5 44bf 4527 09c2 fd5f 33bf
00000130: 910b f396 8545 44bf 929f c948 c9b0 55bf
00000140: 33f7 157a 21e0 46bf 4cf5 8966 d10a 1fbf
00000150: d83b 26b3 3f11 4ebf f89d 6eea 595c 4cbf
00000160: 7ea9 fbc2 70d0 40bf 1e14 ee2e 4727 40bf
00000170: ebb9 8311 ffa4 5bbf e49d 4ae3 bdf1 30bf
00000180: 101a 7bbf 9bbd 3fbf fbef 7318 585b 2f3f
00000190: c18d d789 5e1f 34bf 2e0f e0de 280b 40bf
000001a0: 2f23 888c 0e3f 4abf 48db 0375 c2d0 48bf
000001b0: 8415 0734 103a 48bf df88 80d0 2083 56bf
000001c0: e411 d4ba ab9d 4dbf 1c66 5a72 ad6d 313f
000001d0: 25b2 5f3d 010e 4abf 4be8 ee79 827a 45bf
000001e0: e749 2b79 7f0b 47bf 4b71 5590 925f 2cbf
000001f0: 149e cd98 8d45 44bf ad13 922d 6793 2d3f
00000200: 812d 4d62 e2cd 51bf ef70 d445 110d 51bf
00000210: a76b 2940 0498 2fbf 07a5 62c5 d497 37bf
00000220: d505 c221 c9c2 53bf d419 51b2 74b6 153f
00000230: a31c 678c bdeb 40bf 3a71 f5ce 326b 0ebf
00000240: c265 c22c fa64 44bf b67b 5969 3b42 46bf
00000250: db46 27e0 f621 4ebf f09b b6cb c9be 3ebf
00000260: 1fe5 1a78 28b8 45bf f050 793a 0420 21bf
00000270: faa8 7d1d 14e7 4cbf 2f58 029a 3f63 51bf
00000280: c5f8 f76c 670a 143f cca6 ea73 cca4 4fbf
00000290: 01b8 f9e1 9dee 0d3f 1bd2 0baa e9ad 54bf
000002a0: 01b1 fdf3 1ef2 48bf ab50 ba63 2ce7 43bf
000002b0: 0a3d a1fc 4471 53bf 67e2 a628 ebe4 45bf
000002c0: ebfe b0f1 1fe3 53bf 04a2 7536 bc90 5cbf
000002d0: 34bf 91b6 07f6 14bf 5a5d 4b94 4094 19bf
000002e0: 26d4 a63a bce6 063f 2f92 3b1d f58e e1be
000002f0: 118b 558b 669f 33bf b622 17e0 aca1 4fbf
00000300: 004e 5675 3e1d 46bf 405e 9047 9fd2 4ebf
00000310: fc5a f820 0d76 5dbf 6f3b 5c5f a737 2fbf
00000320: b068 7d01 b3af 55bf db11 9790 f44f 34bf
00000330: 5124 a698 ca96 33bf bc5a 466e b94a 413f
00000340: 6954 73e5 341a 48bf b865 9c1c 4b0e 34bf
00000350: 0b21 c4f8 e0bc 53bf dd77 9762 ad7a 44bf
00000360: 5d8c 462c c693 5cbf e2ca 7c41 5de3 50bf
00000370: 2e0d db73 d105 09bf f9b5 7dd5 01a8 44bf
00000380: 0eab 7522 fd15 3bbf ef42 e154 84f7 2ebf
00000390: cb03 9797 e892 52bf 0790 42c0 49dc 51bf
000003a0: e7c6 f49a fe09 3d3f 4191 7e58 e428 3bbf
000003b0: de91 9c70 e743 47bf f042 9ea7 c4ec 53bf
000003c0: 8050 a94d 82ec 2ebf ea73 9029 7242 46bf
000003d0: fd7c 6f70 7e46 43bf f84d 4eaa 5bdf 57bf
000003e0: 1dea 02e2 19a9 58bf 482f c3b4 5e8e 35bf
000003f0: 2878 3fa9 fda5 4fbf 42fa 8f13 2500 51bf

dense2_weights f8 [128, 10]
0.9861046159968713 1.6710943609953588 -2.019505129902466 -0.5504536175583299 -0.26215949772116814 -0.4647067251174208 -0.6381215080564085 -1.1510525037141772
-0.17439120124018886 -0.8209667592773255 -0.4801361321046303 -0.2136494115623878 -0.4020337111666772 -0.6964089702759464 -0.176871727791199 -0.3161983009472364
0.09854923040541967 -0.5473671684079028 -0.5802007123183832 -0.12567193483466874 0.06712199200388332 0.8005201473203892 0.9647572405934812 -0.22072287426451276
0.23373766097327325 1.0604115186866412 0.004663180792835504 -1.0631056812829245 1.689990853079156 -1.7095807824372204 -1.0159212957273 0.0945811730771544
-0.38410830896088605 -0.05060962458523943 -0.7492929859814733 -0.3025770379614659 -1.1187088128205738 -0.060342527092302436 -0.1458369170112062 -0.22504973011648516
0.5244013857310194 -0.9803777083830679 -1.204212438600216 0.8661970009538598 0.2829607152037815 1.1332995522373375 0.814374784963745 -0.11506613366374256
-0.3421775660273617 -0.328509046342159 -0.15890429869305886 -1.9195200428774741 -0.0807205916904337 -0.7269721866581352 -0.05241738373136874 -0.5890579108422241
-0.6302583693788816 -0.3469462295437226 -0.131891935212106 -0.13508301917729695 -1.0377199279055107 -0.666480650825707 0.29719774978682173 0.35271215147560847
-0.26538022270244227 -0.39069188736366994 -1.026354972832296 0.49956309678752847 -0.016529717363829736 -0.02965487313602569 -0.6597908704420662 -1.2450474991224216
0.5950337418607289 0.28706061050445036 0.2629365666266426 -0.1852031942557003 -0.6669000530248765 0.1481999397179632 -0.27001980100662887 -0.05531987955891075
0.24187443194962738 0.4759173625343097 -0.8022711705522965 -0.7698082931617899 0.942168832850701 1.2339708049817055 -0.8175798830717956 0.1389947388202997
-0.5565034874825961 0.6269526815927556 0.4994396659119928 -1.3239707587303653 0.20961463258030935 -0.44655666405904215 -0.5027332455608506 0.14155079168005472
-0.6008650445609242 0.17190557447366428 -0.3056069860971773 -0.34647031230243247 0.7447737385633941 0.6125921562640336 0.8011125801461183 0.7541091382570991
0.09335030715832955 0.4100718470513847 0.21942091233116068 -0.20467631088007396 0.5911066511784334 0.09271008662529175 -0.6969758925350626 -0.2969860195822374
-0.42681287457811634 -0.2689618061225848 -0.20093058132299063 -0.5552951095625195 -0.6413678888789881 -0.5682305996037734 -0.25905980515746024 -0.25363405264271033
0.8502449242228998 -0.4229669977029807 0.49217556488349634 0.1113452712485955 0.3709103441216872 0.3968055982281028 -0.09565863842716363 0.48629649385242724
0.07401615074881651 0.5138873583394189 1.4590745257707023 0.6058111429584518 0.8920256577427081 1.180459063283567 -0.6952509484092786 1.9010530324484232
-0.7538335263953181 1.1949240856519996 0.6636847854632365 -0.28617091582564985 0.7014991435519375 0.933100500695038 0.5730180292152861 0.6848498571732392
1.3744492159711255 0.04331615601683144 1.2275184357011075 0.6074595838852082 -0.39851288553237657 -0.6093737650444537 0.6197013782521391 0.5454822591462403
0.19105464079088808 0.034425811551926234 -0.5024748352818774 -0.7691595325648811 -0.9703627399442697 0.23040746366969084 -0.6242939076770581 -0.589616330512276
-0.8228648794808678 -0.19565882460917464 -0.7225890725413534 -0.06709936429962265 -0.17477169105980034 0.1742844076157423 -1.3090591824018643 -0.12014190250339254
-1.536055022017064 -0.1522134257449554 0.5832252322630315 0.049671469264122636 0.947651769164448 0.6261448273786251 0.3299362391449072 -0.2699221129667966
-0.6111460984170373 0.08418131613626104 0.09585741258592007 -0.7493494226736308 0.763302625810914 -1.958043990197328 -0.5185828351858288 -0.4710551982475214
-0.4387218077197601 -0.34288477360982655 -0.20410981978759177 -0.2904577637543364 -0.4550006404240183 -0.4781574038782218 0.7673498327873362 0.3003802670667218
0.34133425040127047 -0.4079637335875849 -0.48725819401407855 0.3523758388875568 -0.030287241633426065 -0.0166170736140167 -1.6833568893009552 -0.2691305380298092
-0.6552117009127457 -0.14482204498731624 0.08148141268302617 -0.051163355582977126 0.029889971344452405 -0.4331607714864368 -0.7054858028839108 0.1371151189287016
-0.09371394548907508 0.14346635883229636 0.37190633407716756 -0.4029466758056697 -1.024634743785176 -1.3735043641610138 -0.050929070126775534 -0.6989039317991687
-0.34866251510343776 0.5490800176070342 -0.556613950533005 -0.6173994295653019 -0.023055290441603992 0.09529111416681019 -0.5155216227585981 -0.4605485350028675
-0.017507781160694902 -0.6590957877030384 0.5450411596571761 -0.008586421704134907 -0.49183133576871313 0.1544143832334822 0.6279021610164988 1.067558583037779
-0.7490568228541048 -0.5539197105085795 -0.07890066074945488 -0.10558154166825755 -1.6561031791999599 0.8631944476036273 -1.1651834041410902 -0.8495685857477989
-0.315056645532826 1.41446059368854 0.4525409079805128 -0.5104254272618123 0.6349354507010755 -1.2024842696416047 -0.3445625957313633 -1.2009962186453458
-0.2114230613886239 -0.04441892355400632 -0.30509944492111113 1.6091259441076038 -0.1381692760246275 -0.1546016128571367 1.393129291673627 -2.1086683270337168
00000000: b784 8444 2b8e ef3f d314 d070 cdbc fa3f
00000010: 5748 384e f227 00c0 e817 ace7 509d e1bf
00000020: c515 43a1 38c7 d0bf cf13 a746 c1bd ddbf
00000030: 493f ffcb 7d6b e4bf a5e6 b607 b66a f2bf
00000040: beb4 046d 7352 c6bf fe5f c614 5c45 eabf
00000050: d11b 41e6 8cba debf 3b2c bc29 dd58 cbbf
00000060: c46c 569a ebba d9bf 3e3d ff76 fb48 e6bf
00000070: 9da0 3997 bba3 c6bf 17a0 67cc 973c d4bf
00000080: 9322 a3b9 853a b93f 05ea e626 0884 e1bf
00000090: 5ebf 9015 0191 e2bf bbe9 1199 0416 c0bf
000000a0: e5c1 7f28 e82e b13f 2ff7 906d dc9d e93f
000000b0: dcb3 9d93 4adf ee3f 64fc 38ab a540 ccbf
000000c0: a6a3 dc9c 1deb cd3f 1bf9 9011 72f7 f03f
000000d0: 3b4f 0210 b319 733f d4d4 541a 7b02 f1bf
000000e0: d239 48d9 330a fb3f db01 e760 715a fbbf
000000f0: d456 47b0 3641 f0bf 8f06 2fc5 7836 b83f
00000100: b7f7 4604 3b95 d8bf a0b2 e934 81e9 a9bf
00000110: 2334 bd48 35fa e7bf b929 a414 6c5d d3bf
00000120: 4afb 4c36 3be6 f1bf eabf d638 37e5 aebf
00000130: 9269 8eba c8aa c2bf 8a76 69f7 6dce ccbf
00000140: 4d23 366a e5c7 e03f 4b72 6712 415f efbf
00000150: e196 1343 7444 f3bf f8ae dfc5 e2b7 eb3f
00000160: be97 7642 071c d23f 97e4 16b6 fe21 f23f
00000170: f466 83b5 5b0f ea3f 2b83 f660 f974 bdbf
00000180: 26cb e0bb 3ce6 d5bf c1b3 9ece 4a06 d5bf
00000190: ef4d 0adf f956 c4bf e7cd 02a6 5ab6 febf
000001a0: 3397 6ccd 1aaa b4bf a98b d92c 5b43 e7bf
000001b0: 1279 bc89 73d6 aabf d78e d0f9 8fd9 e2bf
000001c0: 1767 9099 132b e4bf 4f17 57f5 5d34 d6bf
000001d0: 71cb 2bbe d5e1 c0bf 6143 ce7e 664a c1bf
000001e0: b42f 0c36 809a f0bf 97d2 d63a cf53 e5bf
000001f0: 41de f1b5 4905 d33f 9154 dffc d592 d63f
00000200: a9c7 6054 fdfb d0bf cf86 c28b 1801 d9bf
00000210: 486d 2631 f36b f0bf 316b bf7e d7f8 df3f
00000220: ce86 f58d 2aed 90bf 2821 25d9 d85d 9ebf
00000230: 01f0 57be 011d e5bf 8228 2bed b6eb f3bf
00000240: e5dd a933 840a e33f b787 8577 335f d23f
00000250: 855f a5e4 f3d3 d03f 2cb3 38ff bcb4 c7bf
00000260: 0c29 aec7 3e57 e5bf 28cd 2d33 37f8 c23f
00000270: 3523 a621 0148 d1bf 6661 0c23 e352 acbf
00000280: 422a 7bcb bdf5 ce3f 6abd eb18 6e75 de3f
00000290: cc76 0197 34ac e9bf 1539 6a00 45a2 e8bf
000002a0: a0ef 8c40 3f26 ee3f f0d7 b92b 58be f33f
000002b0: d125 7549 9d29 eabf c94d c660 94ca c13f
000002c0: 5320 db66 e0ce e1bf 8792 f211 ff0f e43f
000002d0: ffb2 dac9 d1f6 df3f 32b7 59f6 fb2e f5bf
000002e0: a505 d9fb a6d4 ca3f c871 fc66 6294 dcbf
000002f0: 1e77 0908 6416 e0bf 298f 7e1a 561e c23f
00000300: 2d5c 7654 493a e3bf 4ca7 2e7a 0001 c63f
00000310: 30db ad9a 108f d3bf 39ed 17d1 912c d6bf
00000320: f294 41bc 2fd5 e73f ad15 9edd 5a9a e33f
00000330: 4689 84d9 b6a2 e93f 3bba cd7c a921 e83f
00000340: 650b 5144 cee5 b73f 0d25 06fd 9d3e da3f
00000350: 2caa 4205 fc15 cc3f e777 bf56 d532 cabf
00000360: 6d4d e87e 58ea e23f e5a0 1026 d9bb b73f
00000370: 6e3b 1163 a04d e6bf 2d65 5ea6 d101 d3bf
00000380: dcc8 74f2 e650 dbbf a2da 4a94 ab36 d1bf
00000390: ae35 c6e1 17b8 c9bf 6b64 e63f fac4 e1bf
000003a0: f912 6ef3 1586 e4bf 474f 3cf0 f12e e2bf
000003b0: cd00 b793 6f94 d0bf 0c27 5052 8a3b d0bf
000003c0: 4613 e4d7 3435 eb3f a5fb 9a2b e411 dbbf
000003d0: 0628 c4f0 cd7f df3f 18b4 93aa 1f81 bc3f
000003e0: 540c 70bd febc d73f 4a9a d04e 4365 d93f
000003f0: f2e2 9fa3 157d b8bf 685c 5054 7b1f df3f
00000400: 888b d7f2 b8f2 b23f 0fa9 bce6 c371 e03f
00000410: 3eca a987 5e58 f73f c4e2 d10c ce62 e33f
00000420: 8c54 6664 798b ec3f 8d1d f10a 29e3 f23f
00000430: 66c9 bdea 7e3f e6bf de3d a595 b66a fe3f
00000440: 3be1 cf7c 671f e8bf a83f d1b7 681e f33f
00000450: 275b 0de0 e73c e53f f966 22d1 9f50 d2bf
00000460: 5848 f754 ae72 e63f a9b9 cb94 f5db ed3f
00000470: d5ef efe7 2956 e23f b356 673f 4aea e53f
00000480: bfbd 0976 befd f53f 8b21 f602 892d a63f
00000490: 622c 095f eaa3 f33f 38b8 cd14 4f70 e33f
000004a0: 815a 9930 3c81 d9bf 8c00 fd68 fd7f e3bf
000004b0: 4921 1cfc 97d4 e33f 009a f235 9774 e13f
000004c0: fc12 f97c 7a74 c83f bdef 818d 42a0 a13f
000004d0: 2528 131b 4614 e0bf dfba b873 f49c e8bf
000004e0: b529 2a29 360d efbf c699 9be4 fd7d cd3f
000004f0: 8b14 9237 37fa e3bf ab9b 1711 23de e2bf
00000500: c1b6 4cba e854 eabf e162 6f2e 590b c9bf
00000510: ff62 601e 731f e7bf 1cd0 3f87 6c2d b1bf
00000520: a229 af34 eb5e c6bf c5c7 7493 f34e c63f
00000530: b21c 8f0a e8f1 f4bf 529c 21a6 9ec1 bebf
00000540: b4b7 466e ae93 f8bf 3e19 cbc2 ba7b c3bf
00000550: f7b1 58f6 c7a9 e23f f83d 11f0 896e a93f
00000560: dfd9 91cd 2953 ee3f 07d3 84e0 6009 e43f
00000570: 8c20 39e3 ac1d d53f 0837 ea65 6746 d1bf
00000580: fbee 3843 828e e3bf 724e bd1f e88c b53f
00000590: 98bd 2284 1c8a b83f 781c f5a3 abfa e7bf
000005a0: b3e1 d9a0 f96c e83f 0e6e 60ef 2554 ffbf
000005b0: a47b ac07 3b98 e0bf a25e c5b3 c425 debf
000005c0: 18b2 0ca2 0414 dcbf 1fd6 3cfa d2f1 d5bf
000005d0: 4bdc 6344 4520 cabf 446d 0c29 dc96 d2bf
000005e0: 07ef 9101 bb1e ddbf 8ed2 ff82 219a debf
000005f0: a734 8d3c 218e e83f 8994 da27 6e39 d33f
00000600: b599 9e9c 6bd8 d53f 6f9d 6deb 131c dabf
00000610: 44e7 fffd 3c2f dfbf 3b0c fb63 538d d63f
00000620: 73da 3461 9e03 9fbf 6ee2 e8ee 1004 91bf
00000630: cbb3 30a2 07ef fabf b758 cc4a 6f39 d1bf
00000640: 8d0e 6c87 7ef7 e4bf 35ed 7a5d 8789 c2bf
00000650: 249a b442 f7db b43f ff0a f755 1532 aabf
00000660: aa77 9c05 7a9b 9e3f a570 dcf4 e7b8 dbbf
00000670: e8b7 65f6 5693 e6bf 8eff cafb fc8c c13f
00000680: 1801 0e1b a3fd b7bf 9e65 a10b 1b5d c23f
00000690: 0c59 8239 50cd d73f 4881 a7da e0c9 d9bf
000006a0: 5671 ae66 e764 f0bf dcc1 4fb6 dff9 f5bf
000006b0: 056b 3805 6013 aabf 9df1 43c7 6b5d e6bf
000006c0: b976 ed94 7c50 d6bf 514c d041 1092 e13f
000006d0: fa2b 410f c8cf e1bf 35aa d172 bcc1 e3bf
000006e0: 932f c959 ce9b 97bf 5c23 f29a ff64 b83f
000006f0: 0021 c433 277f e0bf b8b6 0390 a079 ddbf
00000700: 70f7 0a4e 8fed 91bf 87b5 a30c 5017 e5bf
00000710: 9372 7628 fa70 e13f f479 4503 c295 81bf
00000720: 5793 9123 2a7a dfbf 5b89 02bb d9c3 c33f
00000730: 32ea d445 c617 e43f bc61 0b4f b814 f13f
00000740: 2421 a003 46f8 e7bf f7cf 27d4 b5b9 e1bf
00000750: 2f3c 8d6d d532 b4bf f3c3 8654 6407 bbbf
00000760: 8172 170c 667f fabf d27b 51f6 499f eb3f
00000770: 040c 6a5a 97a4 f2bf 55dd 6f75 aa2f ebbf
00000780: 66dc 3c59 e329 d4bf e7f7 756e a1a1 f63f
00000790: 7d38 f823 6ef6 dc3f a85c a4b4 6755 e0bf
000007a0: e3a0 7a26 6451 e43f ce0a 4125 603d f3bf
000007b0: 2ad4 0546 500d d6bf 0a39 9bcf 4737 f3bf
000007c0: 4165 242f e90f cbbf add8 f9bf 13be a6bf
000007d0: f5b0 7dd2 bf86 d3bf 8265 91d8 fabe f93f
000007e0: 1d3c ebe4 87af c1bf 34ac 9053 fcc9 c3bf
000007f0: ee67 adf0 414a f63f 4bc4 f57f 8dde 00c0

dense2_biases f8 [1, 10]
-8.078430548048359e-05 -0.00015262812103734028 -0.00023428431344677908 -3.096150079517933e-05 -0.0002132522914200208 -6.333743226691647e-05 3.92303908223379e-06 0.0003487651699248799
0.00015832832997537223 0.0002642314254642341
00000000: 93d2 decc 572d 15bf cac0 9c93 5901 24bf
00000010: 5635 aeed 46b5 2ebf 1f00 1a11 953b 00bf
00000020: 86e3 213c 8ff3 2bbf e6f8 00cd 809a 10bf
00000030: c8a1 93c5 5474 d03e f317 b2ff 4edb 363f
00000040: f0e8 a0ff 9dc0 243f cbc4 b854 1151 313f
